…
        },
        "returns": "-------\niters : tuple of nditer\nAn nditer for each item in `axes`, outermost first",
        "raises": "",
        "see_also": "--------\nnditer",
        "notes": "",
        "examples": "--------\nBasic usage. Note how y is the \"flattened\" version of\n[a[:, 0, :], a[:, 1, 0], a[:, 2, :]] since we specified\nthe first iter's axes as [1]\n>>> a = np.arange(12).reshape(2, 3, 2)\n>>> i, j = np.nested_iters(a, [[1], [0, 2]], flags=[\"multi_index\"])\n>>> for x in i:\n...      print(i.multi_index)\n...      for y in j:\n...          print('', j.multi_index, y)\n(0,)\n(0, 0) 0\n(0, 1) 1\n(1, 0) 6\n(1, 1) 7\n(1,)\n(0, 0) 2\n(0, 1) 3\n(1, 0) 8\n(1, 1) 9\n(2,)\n(0, 0) 4\n(0, 1) 5\n(1, 0) 10\n(1, 1) 11"
      }
    },
    {
      "name": "nextafter",
      "signature": "nextafter(*args, **kwargs)",
      "documentation": {
        "description": "nextafter(x1, x2, /, out=None, *, where=True, casting='same_kind', order='K', dtype=None, subok=True[, signature, extobj])\nReturn the next floating-point value after x1 towards x2, element-wise.",
        "parameters": {
          "x1": {
            "type": "array_like",
…
